backend/mnist_model.pth (torch, 410480 bytes, 4 tensors)

weight f4 [128, 784]
-0.0040240115 -0.0106181605 0.03143619 -0.020592334 -0.014314661 -0.01762284 -0.0116392635 0.028226014
-0.0047090505 0.00508535 -0.021127213 -0.0052469713 0.037294686 0.033175636 -0.0048206304 -0.0014735792
-0.030697158 0.032406606 -0.012487698 -0.012313419 0.01690987 0.006082945 -0.0019395464 0.0014072106
0.026489863 0.0039148056 -0.00869376 0.017387362 -0.014129543 0.002274197 0.025858607 0.0020740782
0.031277016 0.010452331 0.03340185 0.008479486 0.019246748 0.0381195 0.022223033 0.027623495
0.008780397 -0.007418033 0.022442374 0.01572835 -0.025462944 0.031109313 -0.027023016 0.027541319
-0.022214288 0.025942594 0.01306057 0.027799355 -0.009266276 0.03789005 -0.016634714 -0.013277418
0.004857971 0.039925937 -0.017429393 0.027590778 0.011101838 0.03305482 0.039555408 -0.020583626
-0.020566907 -0.013425413 -0.0076413713 0.036393836 -0.010998607 0.0080810385 0.040347517 0.008866704
-0.01166135 -0.022206329 0.029872295 -0.020131147 0.03898087 0.03445931 -0.0113784205 -0.021907894
0.0010034868 -0.010331602 0.00036065938 0.027698219 0.024069283 -0.019889051 0.005722861 -0.01960796
0.020117406 -0.011411902 -0.020598873 0.015414136 0.023198036 0.020672332 0.0128947785 -0.007981087
-0.0033695805 0.014511924 0.0119301835 0.019698571 -0.024475478 -0.029811269 0.002182482 0.014999198
0.01992625 0.033453766 0.02536574 -0.022271026 0.020594608 0.03286978 0.023299804 0.02102794
0.014044396 0.023420228 0.0082656965 0.018223312 0.02819857 -0.014502295 -0.004286887 0.02838816
0.033987794 -0.005822779 0.012222785 0.00818111 0.00010139965 0.002096437 0.036201384 0.043493703
0.025809787 0.022982728 0.004141395 0.005899955 -0.030020572 0.03560905 0.025713567 0.014945673
0.01105085 0.025971588 -0.01172366 0.026725313 0.01373569 -0.02993851 0.032996006 -0.0068971138
-0.032277387 0.0058053434 -0.011088816 0.027686227 0.017893525 0.034226153 0.006081372 -0.037032176
-0.023631426 0.026870612 -0.021702807 0.030870292 -0.003998521 -0.02584465 -0.004117271 -0.021118794
0.0024426526 -0.015106898 -0.021945236 0.017782856 0.00042400608 -0.014337456 0.0067386134 0.035164073
0.005956051 0.032698587 0.0013859614 -0.009980325 -0.0040829172 0.03167889 0.00543042 0.021001875
0.023686554 0.01948809 0.031861875 0.025633974 -0.0071689943 -0.007310233 -0.004839339 0.008572837
0.021935696 -0.033629812 -0.034402188 0.0059897755 -0.008260136 -0.0065584746 -0.026410181 0.003349963
0.029610766 -0.018170262 -0.0033938333 -0.00075497787 0.028214786 -0.0040412457 0.03785652 0.036013957
0.030665739 0.031411037 0.014360958 -0.01768042 0.033437252 0.021530643 0.020461645 0.014743077
-0.01354085 0.018321894 -0.010566176 0.023887258 -0.027716419 -0.0105551975 -0.024073187 0.024148095
-0.03348609 -0.019673176 -0.020744491 0.022870554 -0.025332058 0.0040317494 0.03644386 0.0398519
-0.0021156417 0.012580791 0.027818892 0.016613085 0.0201402 -0.008411045 -0.02944463 0.00686125
0.035563074 0.02573998 -0.02300275 -0.0043999306 8.518362e-05 -0.015178762 -0.03071619 0.017218353
-0.040061105 -0.044866 -0.030433984 -0.007354429 -0.037281834 -0.008175375 0.03612493 -0.020773638
-0.007994321 0.032257337 0.018941578 -0.015165615 -0.028042164 0.0026843667 0.020378567 -0.015381504
00000000: dbdb 83bb cbf7 2dbc 3cc3 003d 41b1 a8bc
00000010: 0a88 6abc c65d 90bc 9cb2 3ebc 3e3a e73c
00000020: 614e 9abb 02a3 a63b fa12 adbc c9ee abbb
00000030: 50c2 183d 2de3 073d 61f6 9dbb 1d25 c1ba
00000040: 9b78 fbbc cabc 043d 3499 4cbc 39be 49bc
00000050: 9186 8a3c 7153 c73b 6138 feba 2772 b83a
00000060: 4501 d93c c547 803b 4670 0ebc f16f 8e3c
00000070: 997f 67bc b20a 153b 6ed5 d33c 42ed 073b
00000080: 541c 003d 4140 2b3c 61d0 083d 8bed 0a3c
00000090: 5bab 9d3c 3123 1c3d 140d b63c ab4a e23c
000000a0: a7db 0f3c f912 f3bb 12d9 b73c bed8 803c
000000b0: aa97 d0bc f5d8 fe3c 5f5f ddbc 559e e13c
000000c0: bdfa b5bc 9085 d43c 00fc 553c 79bb e33c
000000d0: 94d1 17bc 9932 1b3d 8645 88bc 8789 59bc
000000e0: 9d2f 9f3b 6189 233d 16c8 8ebc 0e06 e23c
000000f0: 7ce4 353c 7e64 073d da04 223d fe9e a8bc
00000100: ee7b a8bc 43f6 5bbc 7864 fabb b411 153d
00000110: 8033 34bc 5566 043c 7043 253d a745 113c
00000120: 3f0f 3fbc 0cea b5bc beb6 f43c 13ea a4bc
00000130: 68aa 1f3d 3525 0d3d 8e6c 3abc 2f78 b3bc
00000140: 6e87 833a e145 29bc e216 bd39 60e7 e23c
00000150: f22c c53c 5dee a2bc d686 bb3b dfa0 a0bc
00000160: 42cd a43c fcf8 3abc f8be a8bc 938b 7c3c
00000170: cf09 be3c 0659 a93c 9f44 533c 1bc3 02bc
00000180: 2ed4 5cbb 6cc3 6d3c d176 433c e65e a13c
00000190: cc80 c8bc c336 f4bc f907 0f3b 32bf 753c
000001a0: 603c a33c d106 093d d0cb cf3c ba71 b6bc
000001b0: 06b6 a83c 76a2 063d 3bdf be3c c942 ac3c
000001c0: 771a 663c c7db bf3c d86c 073c 0e49 953c
000001d0: b000 e73c 099b 6dbc 0479 8cbb 498e e83c
000001e0: c936 0b3d 03cd bebb 1342 483c 100a 063c
000001f0: 86a6 d438 6064 093b e747 143d 7426 323d
00000200: 0c6f d33c 4646 bc3c 8ab4 873b 6954 c13b
00000210: b4ed f5bc ccda 113d 42a5 d23c b2de 743c
00000220: a00e 353c 5ec2 d43c 9814 40bc 0bef da3c
00000230: a90b 613c 9b41 f5bc d226 073d 2f01 e2bb
00000240: 4b35 04bd c03a be3b dead 35bc 3ace e23c
00000250: 7195 923c b930 0c3d 3f46 c73b 0daf 17bd
00000260: b196 c1bc c21f dc3c 16ca b1bc b2e3 fc3c
00000270: 0606 83bb 29b8 d3bc 2cea 86bb 5201 adbc
00000280: e914 203b ec82 77bc 7fc6 b3bc 5aad 913c
00000290: 224d de39 a6e7 6abc 96cf dc3b 3408 103d
000002a0: fa2a c33b f4ee 053d 26a9 b53a 8484 23bc
000002b0: fec9 85bb b9c1 013d aaf1 b13b 200c ac3c
000002c0: 4e0a c23c 7da5 9f3c 9981 023d 57fe d13c
000002d0: e2e9 eabb ae8a efbb 5193 9ebb 1675 0c3c
000002e0: 7db2 b33c 6abf 09bd 4fe9 0cbd e145 c43b
000002f0: 8555 07bc 79e8 d6bb 2a5a d8bc 0e8b 5b3b
00000300: 4792 f23c cdd9 94bc 136b 5ebb b5e9 45ba
00000310: b222 e73c 6d6c 84bb 700f 1b3d 5f83 133d
00000320: b736 fb3c dca8 003d 394a 6b3c 87d6 90bc
00000330: 80f5 083d 0861 b03c 2e9f a73c f28c 713c
00000340: 71da 5dbc cc17 963c c11d 2dbc 36af c33c
00000350: 8b0d e3bc b5ef 2cbc 2235 c5bc 3ad2 c53c
00000360: b628 09bd a429 a1bc 5af0 a9bc 075b bb3c
00000370: 2d85 cfbc c41c 843b 2846 153d bf3b 233d
00000380: 94a6 0abb a91f 4e3c 72e4 e33c 2a18 883c
00000390: 10fd a43c 7bce 09bc dd35 f1bc 56d4 e03b
000003a0: 96aa 113d a7dc d23c 4370 bcbc 4b2d 90bb
000003b0: 9ca4 b238 58b0 78bc 85a0 fbbc 810d 8d3c
000003c0: 1d17 24bd 69c5 37bd b150 f9bc 6cfd f0bb
000003d0: d6b4 18bd 02f2 05bc bcf7 133d 7a2d aabc
000003e0: 9dfa 02bc 4520 043d 5e2b 9b3c 3379 78bc
000003f0: aeb8 e5bc 33ec 2f3b f4f0 a63c b402 7cbc

bias f4 [128]
0.01985058 0.020058742 0.019271769 0.008810647 -0.01836046 0.0056470423 -0.011730058 -0.010484392
-0.0073095574 -0.061704114 -0.0074884784 0.002671639 -0.02323146 0.011264636 0.010408905 -0.051871136
-0.017546678 0.022974776 -0.0036782492 -0.002680404 0.016927123 -0.046245143 0.02758861 0.001543612
-0.030570908 0.016817892 -0.047977723 0.023281844 0.025904357 -0.025283406 0.020076247 -0.064893566
-0.016363021 0.010196678 -0.035638895 0.0079168985 0.011669293 -0.030496823 -0.08073527 -0.009730483
-0.009838257 -0.004448177 -0.024054056 -0.073128745 -0.024048416 -0.037254427 -0.043945726 -0.06592538
-0.07130498 -0.04173229 -0.000654727 -0.015043577 -0.024413686 0.016606318 0.014547662 -0.03797755
-0.01771182 0.009726511 0.017373944 -0.028227272 -0.022263141 -0.034800358 -0.022012046 -0.0067328764
0.003479132 -0.009292703 -0.011948028 -0.026853207 0.016660169 -0.059757896 -0.032489914 0.027671374
-0.05234985 0.026667848 -0.038640562 -0.008477204 -0.022490496 0.020558536 -0.030826932 0.02373055
0.005622624 -0.024973195 -0.021648342 0.0055712718 -0.07636505 0.002413741 0.008777985 -0.013523245
0.026574537 0.016393466 0.00096242945 -0.013403102 0.0007452469 -0.09454103 -0.020476906 -0.034810875
-0.021647753 -0.0072346525 -0.05653504 0.026005473 -0.014056746 -0.03122111 -0.014641064 0.03140595
0.0032379043 0.010643786 -0.05728489 -0.012396185 -0.026004918 -0.023219755 -0.025338128 0.019138576
-0.035673298 -0.03765674 -0.054428227 0.023907393 -0.023157544 -0.015638703 -0.019305734 -0.00075746624
0.016180634 -0.010181096 -0.004095181 -0.00037012188 -0.035809506 -0.02095049 -0.0010239428 0.0017879294
00000000: af9d a23c 3b52 a43c d4df 9d3c 885a 103c
00000010: ad68 96bc d30a b93b 6e2f 40bc bac6 2bbc
00000020: 0385 efbb 74bd 7cbd e961 f5bb aa16 2f3b
00000030: e74f bebc 4f8f 383c 1d8a 2a3c d476 54bd
00000040: 0dbe 8fbc 9935 bc3c c80e 71bb b8a9 2fbb
00000050: c0aa 8a3c 8c6b 3dbd 8201 e23c 0653 ca3a
00000060: d76f fabc adc5 893c 4a84 44bd 91b9 be3c
00000070: 6035 d43c 251f cfbc f176 a43c ebe6 84bd
00000080: be0b 86bc f80f 273c 17fa 11bd e1b5 013c
00000090: 9030 3f3c 79d4 f9bc 8958 a5bd 9b6c 1fbc
000000a0: a430 21bc 03c2 91bb 030d c5bc 86c4 95bd
000000b0: 2f01 c5bc 1998 18bd 6f00 34bd e303 87bd
000000c0: 5808 92bd 7aef 2abd fca1 2bba 5679 76bc
000000d0: 36ff c7bc f909 883c 5159 6e3c 598e 1bbd
000000e0: 6118 91bc f25b 1f3c cd53 8e3c e13c e7bc
000000f0: 3161 b6bc d28a 0ebd 9b52 b4bc 769f dcbb
00000100: 2602 643b 6c40 18bc a9c1 43bc 42fb dbbc
00000110: e87a 883c b2c4 74bd 2514 05bd 14af e23c
00000120: cc6c 56bd 8876 da3c 9145 1ebd f8e3 0abc
00000130: fd3d b8bc 606a a83c c388 fcbc 9266 c23c
00000140: fd3d b83b 9694 ccbc dd57 b1bc 378f b63b
00000150: 4865 9cbd db2f 1e3b 8ad1 0f3c 9a90 5dbc
00000160: d8b2 d93c 974b 863c 8c4b 7c3a af98 5bbc
00000170: ac5c 433a ba9e c1bd 2fbf a7bc d995 0ebd
00000180: a156 b1bc aa10 edbb 4991 67bd 6e09 d53c
00000190: 444e 66bc 6ac3 ffbc 13e1 6fbc 87a3 003d
000001a0: 0533 543b 4663 2e3c 90a3 6abd 5e19 4bbc
000001b0: 4408 d5bc 5b37 bebc e891 cfbc 81c8 9c3c
000001c0: 2a1e 12bd f43d 1abd 22f0 5ebd 70d9 c33c
000001d0: e4b4 bdbc bd1c 80bc 0f27 9ebc b390 46ba
000001e0: 408d 843c 9dce 26bc de30 86bb eb0c c2b9
000001f0: fdac 12bd 5da0 abbc d235 86ba f558 ea3a

weight f4 [10, 128]
-0.031193541 0.069993444 0.07915444 0.026797453 -1.1768051 0.019768858 -0.054442897 0.054867208
0.09609759 -0.3279192 -1.3270124 0.15668347 -0.11474764 0.042225942 -0.28066477 -0.7539534
-0.87784404 -0.054784756 0.013885868 0.17350958 -0.01970851 -0.150129 0.039375648 0.123720884
0.06973864 0.22920302 -0.7491461 -0.020160226 0.085560456 0.03384741 -0.23482177 0.1480553
-0.4432423 0.05501927 -0.08105714 -0.080216095 -0.0561408 0.06734503 0.060943622 -0.5096339
-0.03823175 -0.44477344 0.0327436 -0.07116794 0.040973026 0.12107287 0.08033587 0.1395186
0.16011965 0.052864976 0.046517417 0.07654353 -0.06105932 -0.028699534 0.008707026 0.06291739
0.050617415 -0.66176736 -0.027128914 -0.063281246 -0.017164037 -0.04356001 0.18062016 -0.014915204
-0.09134473 0.21576083 0.18957323 0.0910137 -0.04316988 -0.14351398 -0.5420552 0.087964475
-0.9434187 -0.019110044 0.08640027 0.044029623 0.114821434 0.14118287 -0.09215573 -0.034491695
0.10902443 0.027558146 -0.661341 -0.12065676 -0.356371 -0.5260754 0.042743146 -0.0579541
0.0527274 0.035571214 -0.07502247 -0.6561924 0.15191416 -0.7839756 -0.92320806 -0.016347386
-0.593478 0.019932773 -0.25341848 0.07194558 -0.26485246 0.021344205 0.14085688 -0.06454831
0.069514975 -0.08149193 -0.9863136 0.053492717 0.05921803 -0.09879319 -0.05298812 0.15528952
-0.059666548 -0.3962682 -0.4146361 -0.66479343 0.13019368 -0.23511913 0.10871664 0.045880217
-0.012631883 0.024917524 0.013448781 -0.793156 -0.4581468 0.05085319 0.038430333 0.10086072
-0.04163797 -0.04356807 -0.07596302 0.012649715 0.11871852 0.0451034 -0.077380374 -0.056583237
-0.0533168 0.14299807 0.16359358 -0.43203235 0.09609938 -0.1906322 0.095619306 -0.35406664
-0.083508134 0.053641364 -0.018590733 0.09260013 0.011851294 0.16492698 0.07384463 -0.021404903
0.043316133 0.22495687 0.16728899 -0.004347044 -0.025675686 -0.007379036 0.04416294 0.19109744
0.138672 -0.39054638 0.07498208 0.056584828 0.05567372 0.017835086 -0.19334354 -0.34735155
0.03458719 -0.71487725 -0.016090302 0.08286413 0.01888696 -0.0907452 0.053934295 -0.260814
0.1202156 0.0063505536 -0.031418573 0.05112274 0.055497494 -0.08443831 -0.05032021 0.017922148
-0.031617202 -0.5016258 0.24322113 -0.012313511 -0.028145468 0.011650391 -0.25994685 -0.08538002
-0.088705264 0.057559516 0.13627656 0.027309714 -0.02887614 -0.03470743 0.2179412 0.04096203
0.0018442423 0.01407192 -0.6009343 -0.55496037 -0.4913295 -0.38795137 0.04173343 -0.03431644
-0.23262766 -0.009512601 0.060728323 -0.28914934 0.24447842 0.15424617 0.0081380615 -0.033941317
-0.0119141275 -0.0289739 0.041791484 -0.25415468 -0.35683566 0.13322759 0.16222098 -0.24466118
0.12769133 -0.14776781 0.13201463 -0.76651347 0.13450453 0.05520799 0.003635852 0.14564842
-0.060714327 -0.030787216 -0.3241224 0.14519247 0.036350813 0.33663672 0.105216675 0.13133778
-0.040574916 -0.83009976 0.10726161 0.11641731 -0.12198184 -0.5187968 -0.25078624 -0.054205477
0.009128611 -0.020857487 -0.013616921 -0.5248403 0.017264528 -0.07124303 0.0043498166 -0.12924932
00000000: 9989 ffbc b958 8f3d b91b a23d 5586 db3c
00000010: 8da1 96bf 4df2 a13c 84ff 5ebd 70bc 603d
00000020: d0ce c43d 06e5 a7be 8bdb a9bf a271 203e
00000030: d000 ebbd 1cf5 2c3d 4bb3 8fbe 1703 41bf
00000040: 63ba 60bf fb65 60bd 8d81 633c 7fac 313e
00000050: be73 a1bc 6bbb 19be 5c48 213d 6061 fd3d
00000060: 22d3 8e3d 32b4 6a3e 0ac8 3fbf 0f27 a5bc
00000070: 523a af3d 95a3 0a3d 1e75 70be cf9b 173e
00000080: a8f0 e2be e35b 613d 4901 a6bd 5648 a4bd
00000090: e5f3 65bd 31ec 893d 05a0 793d 5e77 02bf
000000a0: e598 1cbd 58b9 e3be 271e 063d 7fc0 91bd
000000b0: 55d3 273d 0ef5 f73d 2287 a43d f7dd 0e3e
000000c0: 68f6 233e f288 583d 0c89 3e3d dbc2 9c3d
000000d0: 5619 7abd 491b ebbc eaa7 0e3c d5da 803d
000000e0: 3554 4f3d 9669 29bf 753d debc 9999 81bd
000000f0: 989b 8cbc fb6b 32bd 7ef4 383e e65e 74bc
00000100: f212 bbbd 68f0 5c3e 7c1f 423e 6465 ba3d
00000110: e6d2 30bd 54f5 12be 21c4 0abf b826 b43d
00000120: e383 71bf ab8c 9cbc a0f2 b03d 6858 343d
00000130: 8027 eb3d 3e92 103e 25bc bcbd 2a47 0dbd
00000140: 3348 df3d 9fc1 e13c a54d 29bf e41a f7bd
00000150: 4276 b6be e1ac 06bf 7013 2f3d 4761 6dbd
00000160: b0f8 573d 1fb3 113d 61a5 99bd 3afc 27bf
00000170: 638f 1b3e a0b2 48bf 5d57 6cbf f4ea 85bc
00000180: 2dee 17bf 0e4a a33c 11c0 81be 3458 933d
00000190: be9a 87be 0bda ae3c c93c 103e e831 84bd
000001a0: de5d 8e3d 3ee5 a6bd 0c7f 7cbf 2e1b 5b3d
000001b0: 9b8e 723d 1654 cabd 120a 59bd 3704 1f3e
000001c0: e964 74bd aae3 cabe 2f4b d4be e72f 2abf
000001d0: 7e51 053e 12c3 70be d4a6 de3d e5ec 3b3d
000001e0: f5f5 4ebc d61f cc3c 4758 5c3c 460c 4bbf
000001f0: 3892 eabe 6f4b 503d 2069 1d3d 1190 ce3d
00000200: 938c 2abd 6f74 32bd 8092 9bbd c040 4f3c
00000210: b222 f33d 58be 383d 9a79 9ebd d3c3 67bd
00000220: b862 5abd 166e 123e 1385 273e 5833 ddbe
00000230: c0cf c43d 1635 43be 0ed4 c33d 3948 b5be
00000240: 5006 abbd 0cb7 5b3d 984b 98bc 23a5 bd3d
00000250: ee2b 423c 9ee2 283e da3b 973d 5659 afbc
00000260: 426c 313d 185b 663e ce4d 2b3e a671 8ebb
00000270: d155 d2bc d7cb f1bb 33e4 343d 0caf 433e
00000280: 0800 0e3e b2f5 c7be 3490 993d 7ec5 673d
00000290: 200a 643d e31a 923c d9fb 45be 10d8 b1be
000002a0: 4cab 0d3d 3202 37bf cfcf 83bc abb4 a93d
000002b0: d3b8 9a3c 9fd8 b9bd 35ea 5c3d 6a89 85be
000002c0: 9933 f63d 4e18 d03b c3b0 00bd 1466 513d
000002d0: 5751 633d feed acbd 911c 4ebd 78d1 923c
000002e0: 0a81 01bd 8c6a 00bf f60e 793e 9cbe 49bc
000002f0: 5391 e6bc 48e1 3e3c c117 85be b8db aebd
00000300: 1bab b5bd 87c3 6b3d 158c 0b3e 9fb8 df3c
00000310: a88d ecbc 6129 0ebd fa2b 5f3e cdc7 273d
00000320: 81ba f13a e98d 663c d5d6 19bf e211 0ebf
00000330: 8a8f fbbe 90a1 c6be acf0 2a3d 658f 0cbd
00000340: f235 6ebe beda 1bbc 43be 783d 620b 94be
00000350: 8d58 7a3e b5f2 1d3e 8155 053c 0d06 0bbd
00000360: 7933 43bc ac5a edbc 8c2d 2b3d 9020 82be
00000370: 2ab3 b6be d06c 083e 421d 263e 7688 7abe
00000380: 84c1 023e 7250 17be d82e 073e 3a3a 44bf
00000390: 8ebb 093e c621 623d 7947 6e3b dc24 153e
000003a0: 96af 78bd 7935 fcbc 5ff3 a5be 56ad 143e
000003b0: 97e4 143d a65b ac3e d77b d73d 697d 063e
000003c0: e231 26bd 6b81 54bf faab db3d 336c ee3d
000003d0: 9dd1 f9bd decf 04bf 0e67 80be 9006 5ebd
000003e0: 2b90 153c 52dd aabc 8219 5fbc ef5b 06bf
000003f0: 576e 8d3c dee7 91bd e888 8e3b ef59 04be

bias f4 [10]
0.5862637 0.1568495 -0.8594525 -0.7246612 0.24032204 -0.5252805 0.58564115 -0.72653013
1.2251935 0.364216
00000000: 6115 163f 289d 203e 1405 5cbf 6583 39bf
00000010: fb16 763e c878 06bf 94ec 153f e1fd 39bf
00000020: 24d3 9c3f 857a ba3e
